backend/ml/tflite_model.tflite (tflite, 693872 bytes, 16 tensors)

sequential/conv2d/BiasAdd/ReadVariableOp f4 [32]
0	0xbcacc99c	-0.021092229
1	0xbca560ed	-0.02018782
2	0x3d7af393	0.061267447
3	0xbd186f1c	-0.037215337
4	0xbbf77974	-0.00755232
5	0xbd693218	-0.05693254
6	0xbcb5033e	-0.022096273
7	0xbcff2e36	-0.031149965
8	0xbc24787e	-0.010038493
9	0xbd521b2d	-0.051295448
10	0xbc65519e	-0.01399651
11	0x3cc719e4	0.024304338
12	0xbd1f0e06	-0.038831733
13	0x3e257d46	0.1616107
14	0x3c122dca	0.00892205
15	0xbe0a8588	-0.135275
16	0xbd035be8	-0.03207007
17	0xbc5641c3	-0.013077202
18	0xbdf31716	-0.11869638
19	0xbd7eb432	-0.062183566
20	0x3dd1af59	0.10238523
21	0xbd3431ee	-0.04399293
22	0x3b9dc48a	0.004814689
23	0xbd2e31d2	-0.04252798
24	0x3d7bb563	0.06145228
25	0xbd55a177	-0.052155938
26	0xbe1a0048	-0.1503917
27	0x3bba6bf8	0.0056891404
28	0x3d991b37	0.07475894
29	0xbb507378	-0.0031807106
30	0xbcd61cde	-0.026136812
31	0x3c873f1e	0.016509589

sequential/conv2d_1/BiasAdd/ReadVariableOp f4 [64]
0	0xbe2195d6	-0.15779814
1	0xbd5cbe62	-0.0538925
2	0xbc62e703	-0.013849023
3	0xbd86c402	-0.06580354
4	0x3d2c0025	0.041992325
5	0xbe0b0f40	-0.13580036
6	0xbdf6da6e	-0.12053381
7	0xbd2772c1	-0.040880922
8	0xbe1281b2	-0.14307287
9	0xbdfef976	-0.12449925
10	0xbc3aea3c	-0.011408385
11	0xbca4301b	-0.02004247
12	0xbc5fe1b4	-0.013664652
13	0xbe10e353	-0.14149217
14	0xbd99a73d	-0.07502601
15	0xbdaa779b	-0.08323594
16	0xbd843b38	-0.064566076
17	0xbd168bce	-0.036754422
18	0xbcecc823	-0.028904026
19	0xbde6be4f	-0.11266767
20	0xbe1f5e9c	-0.15563434
21	0xbc9f6a7a	-0.019459952
22	0x3de4b809	0.111679144
23	0xbd18690f	-0.037209567
24	0x3dc85ece	0.097837076
25	0xbd277753	-0.04088528
26	0x3b95e242	0.004574091
27	0xbcb0dc0d	-0.021589303
28	0xbe16f024	-0.14740044
29	0xbde13955	-0.10997263
30	0xbc2d0bab	-0.010561864
31	0xbd693cf8	-0.05694291
32	0x3d289930	0.041161716
33	0xbce7bce3	-0.02828831
34	0x3d216a7f	0.039408203
35	0xbd2643b9	-0.04059193
36	0xbdb82ad2	-0.08992542
37	0x3d93e095	0.0722057
38	0xbdadd7d6	-0.08488433
39	0xbd417888	-0.04723409
40	0xbd8f0c6c	-0.06984791
41	0xbd1f4018	-0.038879484
42	0xbd1c2ff0	-0.038131654
43	0xbcfe4fb3	-0.031043863
44	0x3da4c900	0.0804615
45	0xbd670f96	-0.05641135
46	0xbcaaecaa	-0.020864803
47	0xbc2a5286	-0.010395652
48	0xbd089e7d	-0.03335427
49	0xbdf4ca7b	-0.119526826
50	0xbe1b5169	-0.15167774
51	0xbddb5cc5	-0.10711054
52	0x3e165a06	0.14682779
53	0xbe7d59f1	-0.24741341
54	0xbd553e58	-0.05206141
55	0xbccf96d6	-0.025340479
56	0xbd936202	-0.07196428
57	0x3c80bf89	0.015716331
58	0xbcd762d3	-0.02629224
59	0x3ae716bd	0.0017630678
60	0xbd2d1600	-0.04225731
61	0xbe420160	-0.18945837
62	0xbd977550	-0.073954225
63	0x3d26e311	0.04074389

sequential/conv2d_2/BiasAdd/ReadVariableOp f4 [64]
0	0xbd5aed64	-0.05344905
1	0xbe138f04	-0.14410025
2	0x3cbac730	0.022800058
3	0xbcabf184	-0.020989187
4	0xbc954dcb	-0.018225571
5	0xbe7b8ce6	-0.24565467
6	0xbdbb4570	-0.091441035
7	0x3e0b5961	0.13608314
8	0xbdcef5e7	-0.10105496
9	0xbd4c1108	-0.04982093
10	0xbba7006c	-0.005096486
11	0xbd806829	-0.06269867
12	0xbd2cab67	-0.04215565
13	0xbdc36f79	-0.09542746
14	0xbe0015f2	-0.12508371
15	0xbb67db86	-0.003537865
16	0xbdcc10cd	-0.09964142
17	0x3e1a41b7	0.1506413
18	0x3e0c0f3b	0.13677685
19	0x3cab953d	0.020945186
20	0xbe26b451	-0.16279723
21	0xbd1e1276	-0.038591824
22	0xbca7b9c9	-0.020474331
23	0xbce7cc69	-0.028295713
24	0xbcee8687	-0.029116882
25	0xbd257845	-0.0403979
26	0xbd887670	-0.06663215
27	0xbc923803	-0.017848974
28	0xbe4b2d7e	-0.19841573
29	0xbdaeeb94	-0.08541027
30	0xbd8a8461	-0.067635305
31	0xbe0048b2	-0.12527731
32	0xbe355736	-0.1770905
33	0xbe2eacfe	-0.17058179
34	0xbd8770c2	-0.06613304
35	0xbd04eaf8	-0.032450646
36	0xbd368a50	-0.0445655
37	0x3b235783	0.0024923987
38	0xbd8de0d2	-0.06927647
39	0xbd73a335	-0.05948182
40	0xbdbc2498	-0.09186667
41	0xbd885998	-0.06657714
42	0xbdc2cbd3	-0.09511533
43	0xbcc93914	-0.02456335
44	0xbd812133	-0.063051604
45	0xbd7d7334	-0.061877444
46	0xbdad0bfd	-0.08449552
47	0xbd45ad0c	-0.048260733
48	0xbe32ce57	-0.17461525
49	0xbde24d45	-0.11049894
50	0xbdffb967	-0.124865346
51	0xbda65378	-0.08121389
52	0xbda51758	-0.08061093
53	0xbd40a1de	-0.04702937
54	0xbb59d4f1	-0.0033238495
55	0x3b8449bd	0.0040371106
56	0x3c61c154	0.013779003
57	0xbdff8549	-0.12476594
58	0xbe135f30	-0.1439178
59	0xbdeae6d8	-0.11469811
60	0x3d1c8aaa	0.038218178
61	0x3dd195c1	0.102336414
62	0xbd677102	-0.056504257
63	0xbe90fd97	-0.28318474

sequential/conv2d_3/BiasAdd/ReadVariableOp f4 [64]
0	0xbcf3ab8f	-0.029744891
1	0xbd72418a	-0.059144534
2	0xbcc1e1c4	-0.023667224
3	0x3d8b3a30	0.06798208
4	0x3dd27cfe	0.102777466
5	0xbd5c772d	-0.053824592
6	0x3e07be70	0.1325624
7	0x3e397fb9	0.18115129
8	0xbd9a0ee6	-0.07522373
9	0x3d30404e	0.043030076
10	0xbd604d76	-0.054761373
11	0x3e6fad45	0.23405941
12	0xbdd3a01a	-0.10333271
13	0x3da11991	0.078662045
14	0xbd7dc47f	-0.06195497
15	0xbd8f3b86	-0.06993775
16	0x3c48d800	0.01225853
17	0x3ce1b297	0.027550979
18	0xbd9346b2	-0.071912184
19	0xbd397bb3	-0.045283984
20	0xbd9563a8	-0.072943985
21	0xbe1940c5	-0.14966114
22	0xbd8089a0	-0.0627625
23	0x3cac641d	0.021043831
24	0xbe4290cf	-0.19000553
25	0x3c9b6112	0.018967185
26	0x3d3cf1ad	0.046128917
27	0xbcedbdb4	-0.029021122
28	0xbe1d24ba	-0.15346041
29	0xbcfe8b6d	-0.031072343
30	0xbd1e2e83	-0.038618576
31	0xbd5d252c	-0.053990528
32	0xbdcaa3a3	-0.098944925
33	0xbd7ce79b	-0.061744314
34	0xbd22054f	-0.039555844
35	0xbcb4c5f4	-0.022067048
36	0xbd365224	-0.04451193
37	0xba5ec1c5	-0.0008497502
38	0xbd905071	-0.07046593
39	0x3b22d67c	0.002484708
40	0x3dc4f3a5	0.09616784
41	0xbd488c7f	-0.048962113
42	0xbd71e7c2	-0.059058912
43	0xbd38c2da	-0.0451077
44	0xbe023b57	-0.12717949
45	0x3ea710aa	0.326299
46	0xbcd42790	-0.025897771
47	0xbe0b2b28	-0.13590682
48	0x3e114583	0.14186673
49	0xbd0e9dd0	-0.03481847
50	0xbcc6aa54	-0.02425114
51	0x3dfd125d	0.12357018
52	0xbd70f8c7	-0.058831003
53	0x3bd34d30	0.0064484105
54	0xbdd4f88f	-0.10398971
55	0xbc6a4f17	-0.014301083
56	0xbd9027bd	-0.070388295
57	0xbdaf8de8	-0.08571988
58	0xbe124ba1	-0.14286663
59	0xbd868dab	-0.0656999
60	0x3cfb337d	0.0306642
61	0x3e460822	0.1933904
62	0xbd46a84a	-0.048500337
63	0x3cf72ebe	0.030173656

sequential/conv2d_4/BiasAdd/ReadVariableOp f4 [64]
0	0xbdc086d4	-0.094007164
1	0x3dd6b153	0.10483041
2	0xbdb56fbe	-0.08859204
3	0xbd9aeea9	-0.07565052
4	0xbd87decf	-0.06634294
5	0xbd2255ee	-0.03963273
6	0xbd36c16d	-0.04461806
7	0x3c00c914	0.007860441
8	0xbc88c8d7	-0.01669733
9	0xbc8ff52f	-0.017572967
10	0x3e08a275	0.13343222
11	0xbd19585d	-0.037437785
12	0xbce86c38	-0.028371915
13	0xbe04a9f5	-0.12955458
14	0x3dba8bc9	0.09108693
15	0xbe229976	-0.15878853
16	0xbced678d	-0.02898004
17	0xbd0a6301	-0.033785824
18	0xbd049738	-0.032370776
19	0xbbb42a79	-0.005498227
20	0x3d764ffe	0.06013488
21	0xbde1c8cf	-0.11024629
22	0xbc7fa159	-0.015602433
23	0xbe1cb509	-0.15303434
24	0x3d7890e3	0.06068505
25	0xbdd038c6	-0.10167079
26	0xbd11fbba	-0.035640456
27	0xbc6a9b89	-0.014319309
28	0x3d3ddf36	0.04635545
29	0x3c8f0eea	0.017463166
30	0x3d722550	0.059117615
31	0xbdabf74d	-0.08396778
32	0xbd9384fd	-0.072031
33	0x3e3fd7ec	0.18734711
34	0x3d434e89	0.04768232
35	0xbccaf34a	-0.024774212
36	0xbdc4f965	-0.09617881
37	0xbb32fe9d	-0.0027312406
38	0xbe49e62f	-0.19716714
39	0x3d21e4e0	0.039524913
40	0xbd7b27fd	-0.061317433
41	0xbba970df	-0.005170926
42	0xbe023c6f	-0.12718366
43	0xbcd4fc99	-0.025999354
44	0x3d85bfcf	0.06530725
45	0x3e56c2a5	0.20972688
46	0xbd5a18b0	-0.0532462
47	0xbe09e863	-0.13467555
48	0xbdb85a66	-0.09001617
49	0xbca6e577	-0.02037309
50	0xbdeb3b38	-0.114859045
51	0xbcece825	-0.028919289
52	0xbe0b8822	-0.1362615
53	0xbd85c52e	-0.0653175
54	0xbd416bc4	-0.047221914
55	0x3ba0b4a6	0.0049043475
56	0xbcae7a2d	-0.021298492
57	0x3da0611f	0.078310244
58	0xbd1886c0	-0.037237883
59	0xbd2d13c5	-0.04225518
60	0xbd447572	-0.047963567
61	0x3d27e86b	0.040993135
62	0xbcd4d760	-0.025981605
63	0xbd2475f2	-0.040151544

sequential/conv2d_5/BiasAdd/ReadVariableOp f4 [64]
0	0xbcf53a03	-0.029934889
1	0xbd4ec58a	-0.050481357
2	0xbe6f6078	-0.23376644
3	0xbc80816a	-0.01568671
4	0xbdd730f4	-0.10507384
5	0xbd9a24fd	-0.07526586
6	0x3e3765ff	0.17910002
7	0x3ea5ed39	0.3240755
8	0xbd3bbef8	-0.04583642
9	0x3e32728d	0.1742651
10	0xbda0f503	-0.07859232
11	0xbdab37e5	-0.083602704
12	0xbc878812	-0.016544376
13	0xbd0da1fe	-0.034578316
14	0x3d9d6a17	0.07686251
15	0xbc9edc1d	-0.019392068
16	0xbdb553d6	-0.08853881
17	0x3d25392b	0.040337723
18	0x3dba8b5e	0.091086134
19	0xbe0fbecb	-0.14037625
20	0x3db675db	0.08909198
21	0x3e1f8bf3	0.1558073
22	0x3e5b5720	0.21419954
23	0x3e72c2bd	0.237071
24	0x3b96511b	0.0045873052
25	0x3da0d3af	0.078528754
26	0x3d537edd	0.051634658
27	0xbe34b480	-0.1764698
28	0xbd2ce9e8	-0.042215258
29	0xbc7b3b8d	-0.015334022
30	0xbd445916	-0.04793652
31	0xbe823190	-0.25428438
32	0xbca491c0	-0.02008903
33	0xbb5072e9	-0.0031806773
34	0xbd4dd0d5	-0.050247986
35	0x3d9beba4	0.07613304
36	0x3e8ad830	0.27118063
37	0x3d1d4cb7	0.03840324
38	0x3e7bef9c	0.24603122
39	0xbe004355	-0.12525685
40	0xbc55b668	-0.013043977
41	0xbe2dcdf0	-0.1697309
42	0x3c1ef399	0.009701633
43	0xbc289d05	-0.010291343
44	0x3da94411	0.08264936
45	0xbd1771d1	-0.03697378
46	0x3e21558d	0.15755291
47	0xbce0c551	-0.027437838
48	0xbe838cd3	-0.25693378
49	0xbce90108	-0.028442875
50	0xbc994cf0	-0.018713444
51	0xbdc93438	-0.09824413
52	0xbc3c99c5	-0.011511271
53	0x3e0ca26d	0.13733836
54	0x3c4a5a96	0.012350699
55	0xbe35b501	-0.17744829
56	0x3cda01a4	0.02661211
57	0xbcbbae98	-0.022910401
58	0x3e8573af	0.26064822
59	0xbcd2e6df	-0.025744854
60	0x3ce4cc94	0.027929582
61	0xbce80f80	-0.028327703
62	0xbe8b877d	-0.27251807
63	0xbcf6977e	-0.030101534

sequential/conv2d/Conv2D f4 [32, 3, 3, 3]
0	0xbe23e7e4	-0.16006428
1	0xbdcb66f3	-0.099317454
2	0x3d76970f	0.060202654
3	0x3e0a33d7	0.13496338
4	0x3ce3db2a	0.027814467
5	0x3de78f61	0.11306644
6	0x3dd58c9d	0.104272105
7	0x3e11ff85	0.14257629
8	0x3d9c182c	0.07621798
9	0xbe1e2d5f	-0.15446995
10	0xbe633f16	-0.22192034
11	0x3ddd674b	0.10810717
12	0xbc0c4061	-0.008560271
13	0xbc7613eb	-0.015019397
14	0xbdb32678	-0.08747572
15	0x3c14c587	0.009080297
16	0x3d86129e	0.0654652
17	0x3e3c3ad8	0.18381822
18	0xbe32f1b5	-0.17475016
19	0xbe1f31dd	-0.15546365
20	0xbcea2592	-0.028582368
21	0xbca9e455	-0.02073876
22	0xbb7ef722	-0.0038904627
23	0x3cd05274	0.025429942
24	0xbd346d8e	-0.044049792
25	0xbe1f6d50	-0.15569043
26	0x3e2a335a	0.16621152
27	0x3c021555	0.007939656
28	0xbd44fb3e	-0.048091166
29	0xbc4f2d5f	-0.012645095
30	0x3e1c1b31	0.15244748
31	0x3d761ab6	0.060084067
32	0xbdbb35ce	-0.09141122
33	0x3dd1546f	0.102211826
34	0x3dabd9a4	0.08391121
35	0xbe450392	-0.19239643
36	0xbc8ba26b	-0.01704522
37	0xbdaa3739	-0.08311314
38	0xbe62eb3d	-0.22160049
39	0x3d20eacc	0.03928642
40	0x3d11ae10	0.03556639
41	0xbc8283f9	-0.01593207
42	0xbd97cbf0	-0.07411945
43	0x3e148211	0.14502741
44	0xbad51c7c	-0.0016259099
45	0xbc37e05d	-0.011222926
46	0x3da1c765	0.078993596
47	0xbd66f355	-0.056384403
48	0x3d637eee	0.05554097
49	0xbde30cec	-0.11086449
50	0xbe6caaed	-0.23112078
51	0xbc90d7b2	-0.017680977
52	0xbe0d2f84	-0.13787657
53	0xbd2af054	-0.0417331
54	0xbe123df5	-0.14281447
55	0xbcfd7e47	-0.030944003
56	0xbe9135d5	-0.28361383
57	0xbddf108d	-0.10891829
58	0xbdac0991	-0.08400262
59	0xbe5c2749	-0.21499361
60	0xbe20fb70	-0.15720916
61	0x3d9b4519	0.07581539
62	0xbe7b0fe7	-0.24517785
63	0x3d2358e2	0.039879687
64	0x3c965421	0.018350663
65	0xbe274f8e	-0.16338941
66	0xbc632b3a	-0.0138652865
67	0x3d4a8331	0.04944152
68	0xbde8ce42	-0.113674656
69	0xbddd48a4	-0.10804871
70	0x3e23753e	0.15962693
71	0xbe850fd7	-0.25988647
72	0x3e3d0983	0.1846066
73	0x3e4d458b	0.2004606
74	0xbe3f0538	-0.18654335
75	0x3e0a624f	0.13514064
76	0x3e0a72b3	0.13520317
77	0xbda9d336	-0.082922384
78	0x3e17db8a	0.14829841
79	0x3da64d0c	0.08120164
80	0x3c486133	0.012230205
81	0x3da21ef9	0.07916064
82	0x3dcf4003	0.10119631
83	0xbe23e4ac	-0.160052
84	0xbe1902dc	-0.14942497
85	0x3d5dba7e	0.05413293
86	0xbdb4b893	-0.08824267
87	0xbc18a8c2	-0.009317579
88	0xbdeed4c4	-0.116616756
89	0x3dc1e3a6	0.094672486
90	0x3cc37084	0.023857363
91	0xbd109554	-0.03529866
92	0xbdc91a25	-0.0981944
93	0xbd873d33	-0.0660347
94	0xbd7072a6	-0.058703087
95	0xbe1026a4	-0.1407724
96	0x3ceda97b	0.029011479
97	0xbe1a72b2	-0.15082815
98	0xbd2e2861	-0.042518977
99	0xbd96e00e	-0.07366954
100	0xbdc527e8	-0.09626752
101	0x3d5e56d1	0.054282013
102	0x3c4ce075	0.012504687
103	0x3dbb80db	0.091554366
104	0xbd4f24ec	-0.05057232
105	0x3d56265a	0.05228267
106	0xbdd82a15	-0.105549015
107	0x3d5ed023	0.054397713
108	0x3e22bb47	0.15891753
109	0x3d98f357	0.074682884
110	0x3e0c99ee	0.13730595
111	0xbbb6003a	-0.005554226
112	0xbd82b94d	-0.063829996
113	0xbdb32685	-0.087475814
114	0xbddee21f	-0.10882973
115	0xbe402711	-0.18764903
116	0xbd9b9d0f	-0.07598316
117	0x3e68feff	0.22753523
118	0x3d7021dd	0.058626045
119	0x3e4fd8bc	0.20297521
120	0xbda05e24	-0.07830456
121	0x3ce24ba8	0.027623966
122	0x3c878c49	0.016546385
123	0xbd669900	-0.056298256
124	0xbd2eb0a3	-0.042648923
125	0xbd837060	-0.06417918
126	0x3df0453b	0.11731955
127	0xbdd48248	-0.10376412
128	0x3d88e98d	0.06685171
129	0xbcab8930	-0.02093944
130	0xbcbc8a40	-0.023015141
131	0x3e099bd2	0.13438347
132	0xbe000d54	-0.12505084
133	0xbe49c97f	-0.19705771
134	0xbd4444ec	-0.04791729
135	0xbd241977	-0.040063348
136	0xbde6b9dd	-0.11265919
137	0x3d27ec62	0.040996917
138	0x3e455def	0.19274114
139	0x3e24c094	0.16089088
140	0x3da2889e	0.07936214
141	0x3e63821c	0.22217602
142	0x3e34f6c5	0.1767226
143	0x3e40ce2a	0.18828645
144	0xbdda1339	-0.10648198
145	0x3d012742	0.03153158
146	0xbdd962f9	-0.10614581
147	0xbd766445	-0.06015422
148	0xbcdb93f4	-0.026803948
149	0xbdd1e54b	-0.10248812
150	0xbb9bd107	-0.0047551426
151	0xbd7848fc	-0.06061648
152	0x3e142c45	0.14470012
153	0x3dbbcaf7	0.09169572
154	0x3d64b108	0.055832893
155	0xbce01ea1	-0.027358355
156	0xbe545ab2	-0.20737723
157	0xbdfde4f7	-0.12397187
158	0xbe564bfc	-0.20927423
159	0xbe2cc7ae	-0.16873047
160	0xbdbf7f44	-0.09350446
161	0xbd7f7963	-0.062371623
162	0xbcbcd9e0	-0.02305311
163	0x3d49d629	0.049276505
164	0xbdf5047d	-0.11963747
165	0x3db9173d	0.090376355
166	0xbd89d632	-0.06730308
167	0x3e13adde	0.14421794
168	0x3dadc09c	0.08484003
169	0xbcf7afee	-0.030235257
170	0x3e2c7dea	0.16844907
171	0xbe880d81	-0.26572803
172	0xbe15d5f2	-0.14632395
173	0xbe0cb76f	-0.1374185
174	0xbde23e0f	-0.11046993
175	0xbdb22760	-0.086989164
176	0x3d704c5b	0.05866657
177	0xbc6b6fdb	-0.01436993
178	0xbcda8bdd	-0.02667802
179	0x3df829d6	0.121173546
180	0xbe7860e0	-0.24255705
181	0xbe344b5b	-0.17606871
182	0xbe0ac7a9	-0.13552727
183	0xbe586a0b	-0.21134202
184	0xbd1d09ab	-0.0383393
185	0xbdafa986	-0.08577256
186	0xbcf472a2	-0.029839817
187	0x3d3201f6	0.0434589
188	0x3e1d326c	0.15351266
189	0xbdbf3a7a	-0.093373254
190	0xbe516cca	-0.20451656
191	0xbda4c6bd	-0.08045719
192	0xbe2d0686	-0.1689702
193	0xbe310243	-0.17286019
194	0xbce8565f	-0.028361497
195	0xbdfa7a0e	-0.12230311
196	0x3d3304e0	0.04370582
197	0x3e189c14	0.14903289
198	0x3d563511	0.0522967
199	0x3b0892f0	0.0020839535
200	0x3dd818dd	0.10551617
201	0xbe36f385	-0.17866333
202	0xbd771653	-0.060324024
203	0xbdc7856a	-0.097422436
204	0x3de63009	0.11239631
205	0xbde4e562	-0.11176564
206	0x3e466d49	0.19377626
207	0x3d3f4f17	0.046706285
208	0x3d16f72a	0.036856808
209	0xbd139add	-0.03603636
210	0xbd2ac11b	-0.041688066
211	0x3c88cc44	0.016698964
212	0xbcaeb664	-0.021327205
213	0x3de7669f	0.1129887
214	0x3e1a46fd	0.15066142
215	0x3e5fb7c5	0.21847446
216	0xbe2caee4	-0.1686359
217	0xbcab3316	-0.020898383
218	0x3e0e8cb4	0.13920861
219	0x3d890ff0	0.06692493
220	0xbde25e6f	-0.11053168
221	0x3e469c78	0.19395626
222	0xbe15d515	-0.14632066
223	0xbd900bbe	-0.0703349
224	0xbd475be9	-0.048671637
225	0xbdeaee9e	-0.11471294
226	0xbd816e0a	-0.063198164
227	0x3ddf8ed1	0.10915912
228	0xbe08afc9	-0.13348307
229	0xbda6e73d	-0.08149574
230	0x3dd7107b	0.1050119
231	0x3cac8096	0.021057408
232	0xbd82e36a	-0.06391032
233	0x3e2afd98	0.16698301
234	0x3d4c05a2	0.04981006
235	0xbe0d593b	-0.1380357
236	0x3e2fc515	0.17165025
237	0x3d7cc306	0.061709426
238	0xbdb04482	-0.08606817
239	0x3e43cc9d	0.19121023
240	0x3c855cff	0.016279696
241	0xbbf412b9	-0.007448521
242	0x3cf850c3	0.030311948
243	0xbc865564	-0.01639814
244	0xbc556aba	-0.013025934
245	0x3dd78be8	0.10524732
246	0x3b1c5057	0.0023851597
247	0xbbcdfc63	-0.0062861904
248	0xbe017edd	-0.12646051
249	0x3cd8e3bd	0.026475782
250	0x3c7975d3	0.015225845
251	0xbc9033b9	-0.017602788
252	0xbd88bc0f	-0.06676494
253	0xbd84fcf3	-0.06493559
254	0x3d80c46e	0.06287466
255	0xbd5d3de7	-0.054014113

sequential/conv2d_1/Conv2D f4 [64, 3, 3, 32]
0	0x3d946b80	0.072470665
1	0xbd48968a	-0.04897169
2	0x3e45a997	0.19302975
3	0x3d0830fe	0.033249848
4	0xbd203a26	-0.039117955
5	0xbd930f31	-0.07180632
6	0xbdf0c430	-0.1175617
7	0x3def845b	0.11695167
8	0x3d2b1ea2	0.04177726
9	0x3d1c80cb	0.038208764
10	0x3d223fcd	0.039611626
11	0x3d4bbb11	0.049738947
12	0x3d8e1bc9	0.06938893
13	0xbea95268	-0.33070683
14	0x3b8f88cc	0.004380321
15	0xbd4fabf5	-0.0507011
16	0xbce289b9	-0.027653562
17	0x3dc690e2	0.09695603
18	0xbe0ecfd2	-0.13946465
19	0x3d2949d6	0.04133018
20	0xbd30d6b7	-0.043173518
21	0xbd446c0f	-0.047954615
22	0x3dcaeb4a	0.09908159
23	0x3d5918f0	0.053002298
24	0xbcb30947	-0.02185501
25	0x3d42884a	0.047493257
26	0xbc329ee5	-0.010902141
27	0x3ae82165	0.0017710148
28	0x3d5d909e	0.054092996
29	0xbdc5a9ff	-0.09651565
30	0x3cc7ef97	0.024406238
31	0x3db31dfc	0.087459534
32	0x3d304993	0.043038916
33	0xbd262061	-0.040558223
34	0x3dd222da	0.10260554
35	0xbd5d719a	-0.054063417
36	0x3dd83732	0.10557403
37	0x3e33c5fd	0.17555995
38	0xbcabf692	-0.020991597
39	0x3e2a02f4	0.16602689
40	0x3dab8b08	0.083761275
41	0xbd107089	-0.035263572
42	0xbc2cb4ca	-0.01054115
43	0xbcef94ae	-0.0292457
44	0x3d12b75a	0.03581939
45	0xbe61476f	-0.21999906
46	0xbc251253	-0.01007517
47	0xbb9053d0	-0.0044045225
48	0x3d992c7b	0.07479187
49	0x3e34413b	0.17603008
50	0xbe3c8004	-0.18408209
51	0xbd43ee8e	-0.047834925
52	0xbd3c3a6a	-0.045954145
53	0x3d53f963	0.051751506
54	0x3e06a600	0.13149261
55	0xbac4273f	-0.001496531
56	0x3d501104	0.050797477
57	0x3cc5913f	0.02411711
58	0x3be7bddb	0.007072193
59	0xbc5dc465	-0.013535594
60	0x3c5eb4ba	0.013592893
61	0xbe565c43	-0.20933633
62	0xbd061802	-0.03273774
63	0x3d7e87ec	0.062141344
64	0x3de4bbc3	0.11168625
65	0x3d6ee6c2	0.058325537
66	0x3d9af55c	0.0756633
67	0xbd5bf3f8	-0.053699464
68	0x3e44f39f	0.19233559
69	0x3e5358f5	0.20639403
70	0x3e0bf611	0.13668086
71	0x3db869c5	0.09004549
72	0x3cf505b8	0.029909953
73	0xbc415412	-0.011799829
74	0x3dc2fe94	0.09521213
75	0x3c6ea1ea	0.0145649705
76	0x3d88c4c4	0.06678155
77	0xbe3fe542	-0.18739799
78	0x3d943609	0.07236869
79	0x3db2965a	0.087200835
80	0xbcbb3fa1	-0.022857489
81	0x3ea6f930	0.3261199
82	0xbe019465	-0.12654264
83	0xbd38b3f1	-0.04509348
84	0x3d2a0550	0.041508973
85	0xbd8049c9	-0.062640734
86	0x3de51236	0.11185114
87	0x3b12e8c7	0.0022416578
88	0x3df6c093	0.12048449
89	0x3e642a15	0.22281678
90	0xba10fcb0	-0.00055308174
91	0xbe24eac8	-0.16105187
92	0xbe07c33d	-0.13258071
93	0xbde58285	-0.11206535
94	0x3d677def	0.056516584
95	0x3d4ca445	0.049961347
96	0x3db04cb5	0.08608381
97	0xbd81e52b	-0.063425384
98	0xbd2d5161	-0.042313937
99	0xbd6f7c40	-0.058468103
100	0xbc3deeef	-0.011592611
101	0xbe0a3641	-0.13497259
102	0x3d1c3c6c	0.03814356
103	0xbdb0d33e	-0.08634041
104	0x3d8140b1	0.06311167
105	0x3d6bd7c8	0.057578832
106	0xbda27488	-0.07932383
107	0xbc0367aa	-0.008020321
108	0x3d828375	0.0637273
109	0xbe49680f	-0.19668601
110	0x3d6e6579	0.05820224
111	0x3d1d1030	0.038345516
112	0x3ceb8e97	0.028754516
113	0x3e02f174	0.1278742
114	0xbe129e3b	-0.14318173
115	0x3d424bf6	0.047435723
116	0xbe1bb22b	-0.15204684
117	0x3c673c94	0.014113564
118	0x3d06e688	0.032934695
119	0x3c97773c	0.018489473
120	0x3bda8655	0.0066688457
121	0x3d9cb3a7	0.076514535
122	0xbde4ec2d	-0.111778595
123	0xbe07130b	-0.13190858
124	0xbd59336c	-0.053027555
125	0xbdd788f9	-0.10524172
126	0x3d15cd85	0.03657295
127	0x3da181b6	0.078860685
128	0xbc9122c3	-0.017716771
129	0x3be14404	0.006874563
130	0x3ae53f03	0.0017490092
131	0xbd843433	-0.06455269
132	0xbd91474f	-0.07093679
133	0xbde14430	-0.10999334
134	0x3d9dad5d	0.07699082
135	0xbd982b05	-0.0743008
136	0xbc7bdab9	-0.015371972
137	0x3cfbfb00	0.030759335
138	0xbe090720	-0.13381624
139	0x3b1e2415	0.0024130393
140	0x3d98c7b4	0.07459965
141	0xbe749b23	-0.23887305
142	0x3d7ce6f9	0.06174371
143	0x3ab98ddf	0.0014156661
144	0xbd5f3ac0	-0.054499388
145	0x3d2f843c	0.042850718
146	0xbd9f4973	-0.07777681
147	0xba9e3d1c	-0.0012072655
148	0x3c1aff40	0.00946027
149	0x3d44e0d8	0.04806599
150	0x3d3b6cf6	0.04575821
151	0x3cf207fc	0.029544823
152	0xbcb4c13b	-0.022064796
153	0xbe4ecf07	-0.20196162
154	0xbdb47a70	-0.088124156
155	0xbe1cca8c	-0.1531164
156	0xbe72c37c	-0.23707384
157	0xbda784b7	-0.0817961
158	0xbd406558	-0.04697165
159	0x3d59b2aa	0.053148903
160	0xbc95718b	-0.018242618
161	0x3d6084d4	0.054814175
162	0xbe0851de	-0.1331248
163	0x3c7e0cc2	0.015505971
164	0x3e802cc3	0.2503415
165	0x3db33965	0.087511815
166	0xb9d516aa	-0.00040643412
167	0xbd9d3d8e	-0.07677756
168	0x3d9771ae	0.073947296
169	0x3db2ce49	0.08730752
170	0x3df57098	0.11984366
171	0x3de495c1	0.11161376
172	0xbc728ea5	-0.014804517
173	0xbe8ef431	-0.27920678
174	0x3d49d65a	0.049276687
175	0xbc037875	-0.008024325
176	0xbd63cf7f	-0.055617806
177	0x3e37baaa	0.179423
178	0xbc3075e8	-0.010770299
179	0xbd48a60f	-0.04898649
180	0x3d652a3a	0.055948474
181	0xbcc0ed08	-0.023550525
182	0xbd8342ce	-0.06409226
183	0x3d7d8f21	0.061904076
184	0x3d3d6d41	0.04624677
185	0x3e114a98	0.14188612
186	0x3c5b59df	0.013388126
187	0xbe0e3c02	-0.13890079
188	0xbee2a2d3	-0.4426485
189	0xbd809c5b	-0.062798224
190	0x3daf90b1	0.085725196
191	0xbd50c917	-0.050973024
192	0x3d708b2d	0.05872648
193	0x39fcf9a2	0.00048251176
194	0xbe5de884	-0.21670729
195	0xbd24fac3	-0.040278208
196	0x39cbd502	0.0003887788
197	0xbe2ca98d	-0.16861553
198	0x3cc6314b	0.024193427
199	0xbe061abe	-0.13096139
200	0x3dbde394	0.09271923
201	0xbd6c1594	-0.057637766
202	0xbd876fb8	-0.066131055
203	0x3d71e3d7	0.059055176
204	0x3defec90	0.117150426
205	0xbe58c244	-0.21167856
206	0x3deecda8	0.116603196
207	0xbda62f98	-0.081145465
208	0x3d2ed34e	0.042681985
209	0xbac621df	-0.0015116296
210	0xbd0da852	-0.03458435
211	0xbde4a58c	-0.11164388
212	0x3cfafa20	0.030636847
213	0xbd7a2b66	-0.061076544
214	0x3d211958	0.03933081
215	0x3d5893d8	0.05287537
216	0x3d6b30af	0.057419475
217	0x3d8abcd7	0.067742996
218	0xbde66975	-0.11250583
219	0xbd603019	-0.05473337
220	0xbb8c30e3	-0.0042782887
221	0xbe7e311e	-0.24823424
222	0xbd8d9ec3	-0.06915047
223	0xbd65c229	-0.05609337
224	0x3cc368e0	0.02385372
225	0xbd94f54b	-0.072733484
226	0xbe59f72f	-0.212857
227	0xbd9608f1	-0.07325924
228	0xbd623c14	-0.055233076
229	0xbd67a58e	-0.05655437
230	0xbd77486a	-0.060371794
231	0xbe28d2b2	-0.16486624
232	0xbcf4402d	-0.029815758
233	0x3d74d02f	0.05976885
234	0xbd16ba04	-0.036798492
235	0x3cf71249	0.030160086
236	0x3d8e5548	0.0694986
237	0xbe96b7b8	-0.2943704
238	0x3d979e50	0.074032426
239	0x3d589c76	0.052883588
240	0xbd5bb2fb	-0.053637486
241	0xbd1d0f3a	-0.0383446
242	0xbe1d4e0f	-0.15361808
243	0xbd2dba9c	-0.042414293
244	0xbc430a82	-0.011904361
245	0x3dd891a6	0.10574655
246	0xbd4069f4	-0.046976045
247	0xbd97a400	-0.074043274
248	0x3dbaf6fc	0.0912914
249	0xbc8e6e33	-0.017386531
250	0xbb9722ed	-0.004612318
251	0xbe1e6962	-0.15469888
252	0xbe9835d4	-0.29728568
253	0xbdf4f7d8	-0.11961335
254	0xbbbdc583	-0.0057913675
255	0xbca5866e	-0.020205703

sequential/conv2d_2/Conv2D f4 [64, 3, 3, 64]
0	0x3be314bc	0.006929962
1	0x3d72fb49	0.059321675
2	0x3d3faeee	0.046797685
3	0xbd327a5a	-0.043573715
4	0xbd4c3659	-0.049856517
5	0x3c20e367	0.009819842
6	0x3ce751aa	0.028237183
7	0xbda21ee7	-0.079160504
8	0x3d15c079	0.03656051
9	0xbd898086	-0.06713967
10	0xbd94da47	-0.072681956
11	0x3cfef5a0	0.031122983
12	0xbbf607ce	-0.0075082546
13	0x3d333ee2	0.04376114
14	0xbd95fdaa	-0.07323773
15	0xbd90876c	-0.0705708
16	0xbd521203	-0.05128671
17	0xbd8a0d72	-0.06740846
18	0xbd2b9950	-0.041894257
19	0xb93f4de3	-0.00018244195
20	0xbced550a	-0.028971214
21	0x3ce014ef	0.027353732
22	0xbcad92c6	-0.021188151
23	0xbcd56558	-0.026049301
24	0x3d23b325	0.039965767
25	0xbd0c88e6	-0.034310244
26	0xbccad9e7	-0.024762107
27	0xbc5ecabf	-0.013598143
28	0xbd786ce7	-0.060650732
29	0x3bc2d44e	0.005945719
30	0x3c855fc0	0.016281009
31	0x3c5e0e77	0.013553253
32	0x3cd43b61	0.02590722
33	0xbc8f96f8	-0.017528042
34	0x3d525835	0.051353652
35	0x3bc664db	0.0060545034
36	0x3d681f45	0.056670446
37	0x3d1e40c4	0.038635984
38	0xbd3ffcb0	-0.04687184
39	0xbd51afff	-0.051193234
40	0x394a5572	0.00019296052
41	0xbd93ee81	-0.072232254
42	0x3c03e41c	0.008049991
43	0x3d344921	0.044015054
44	0x3d4ee167	0.05050793
45	0x3caabdb0	0.020842403
46	0xbd360747	-0.044440534
47	0xbd64d3f9	-0.055866215
48	0xbc9b248e	-0.01893833
49	0xbd776be8	-0.06040564
50	0xbd5c5d65	-0.053800005
51	0x3c8670b9	0.016411172
52	0xbc9937a6	-0.018703293
53	0xbc5ae237	-0.013359598
54	0x3d21dd9d	0.039517988
55	0xbcef4d79	-0.029211747
56	0x3cb34e22	0.021887843
57	0xbd070105	-0.032959957
58	0x3cb51d04	0.022108562
59	0xbd89d8e1	-0.067308195
60	0x3d25a6ea	0.040442385
61	0xbd561274	-0.052263692
62	0x3d107117	0.0352641
63	0x3d5859f5	0.052820165
64	0x3d49ff8a	0.049315967
65	0x3d34d8d1	0.044152085
66	0xbcb736ca	-0.022364993
67	0xbca7704b	-0.020439288
68	0xbd626cc9	-0.055279527
69	0x3c6b12b8	0.014347725
70	0xbd5b8f8b	-0.05360369
71	0xba853007	-0.0010161408
72	0xbcbe5ddf	-0.02323812
73	0x3d566efb	0.052351933
74	0x3d66da81	0.056360725
75	0x3ce6d5a0	0.028178036
76	0xbda291d7	-0.07937973
77	0x3d0ea603	0.03482629
78	0x3d4b707f	0.04966783
79	0xbdbaf574	-0.09128848
80	0x3ca62135	0.020279506
81	0x3d2ff73d	0.042960394
82	0x3ccaaf7e	0.024741884
83	0xbd9d78b6	-0.076890394
84	0x3d6b82b8	0.05749771
85	0xbcee17dd	-0.029064113
86	0x3c6f151c	0.014592435
87	0x3d23f703	0.04003049
88	0xbd12e5f9	-0.03586385
89	0xbd5984a2	-0.053105004
90	0xbca49083	-0.02008844
91	0x3cfc3254	0.030785717
92	0xbd48a316	-0.048983656
93	0xbbc23fb2	-0.005928003
94	0xbd1111d5	-0.035417397
95	0xbd8bf854	-0.06834474
96	0xbd8a38cc	-0.067491144
97	0xbd080f6c	-0.033217832
98	0xbdb52825	-0.088455476
99	0xbc8ae055	-0.016952673
100	0xbd972125	-0.07379369
101	0x3cae7e01	0.021300318
102	0xbc51e091	-0.012809888
103	0xbd97f360	-0.07419467
104	0x3cf09a8b	0.029370567
105	0xbcf67d2d	-0.030088985
106	0xbbc65d9f	-0.006053641
107	0xbd2e02c5	-0.04248311
108	0x3c02c4ee	0.007981522
109	0xbd79a217	-0.060945597
110	0x3d7d363e	0.061819308
111	0xbd01ef42	-0.031722315
112	0xbd9b72e8	-0.07590276
113	0x3bf7b0b6	0.0075589074
114	0xbd0c0ae9	-0.034190092
115	0xbcff90b9	-0.031196939
116	0xbd80df03	-0.06292536
117	0xbd179883	-0.03701068
118	0xbd5f96b1	-0.05458707
119	0xbcbb1de7	-0.022841407
120	0x3c9b90ac	0.018989883
121	0xbd1cea89	-0.038309608
122	0xbc8cffff	-0.017211912
123	0xbd916cbd	-0.07100818
124	0x3c815cd4	0.015791334
125	0x3cdb0068	0.026733592
126	0x3d5dd9eb	0.0541629
127	0x3d80b516	0.062845394
128	0xbd841b12	-0.06450476
129	0xbc8b0d00	-0.016973972
130	0xbbfbfdc8	-0.007690165
131	0x3c9f63c1	0.019456746
132	0x3cb4b6ae	0.022059765
133	0x3d140a8c	0.03614287
134	0x3d7b0a46	0.061289094
135	0xbdb53dda	-0.08849688
136	0x3d4c365d	0.049856532
137	0xb9ddbb9b	-0.00042292182
138	0xbccde562	-0.025133792
139	0xbca7ef2d	-0.02049979
140	0x3cf3dda0	0.029768765
141	0xbc8a6f2e	-0.016898718
142	0x3cf04a63	0.029332345
143	0xbd3abfbb	-0.045593005
144	0xbccbfa52	-0.024899635
145	0x3b514e4a	0.0031937533
146	0x3afd4936	0.0019324187
147	0xbbace21d	-0.0052759782
148	0xbd8e2b5c	-0.06941864
149	0x3d86bf2c	0.06579432
150	0xbd7f07a2	-0.06226314
151	0xbd2387ab	-0.039924305
152	0xbc9de942	-0.019276265
153	0x3d28ccf5	0.041211087
154	0xbd84fe9c	-0.064938754
155	0xbd332dc3	-0.043744814
156	0x3d3c0b38	0.045909137
157	0xbd5a9ac9	-0.05337027
158	0xbc82a4b0	-0.01594767
159	0x3d79014a	0.060792245
160	0xbd7f0862	-0.062263854
161	0xbd54af47	-0.05192497
162	0xbd4519a3	-0.048120152
163	0x3d83f475	0.06443111
164	0x3b75e3ca	0.0037519806
165	0xbd333e14	-0.043760374
166	0x3c29f804	0.010374073
167	0x3cb41da3	0.021986788
168	0xbc8d3d50	-0.01724115
169	0x3b498f83	0.0030755706
170	0x3ce6ced2	0.028174791
171	0xbd8a4171	-0.06750763
172	0xbd9f3924	-0.077745706
173	0xbd506e0b	-0.050886195
174	0x3c3d8d5d	0.011569348
175	0xbc9d0b3b	-0.019170394
176	0x3d3d7fac	0.046264336
177	0x3bcd3bd6	0.0062632365
178	0xbc605b06	-0.013693577
179	0x3ca7cc52	0.02048317
180	0x3c6e51ac	0.014545839
181	0x3d79eadb	0.06101499
182	0x3cb0e145	0.021591792
183	0xbda43239	-0.08017392
184	0xbd490dce	-0.04908543
185	0xbbfb88b5	-0.007676209
186	0xbd93aa11	-0.07210172
187	0xbd2cb531	-0.042164985
188	0xbb9455e5	-0.004526841
189	0xbc788c26	-0.015170133
190	0x3d8bd3ec	0.0682753
191	0x3beb8463	0.0071874126
192	0xbd1043f7	-0.035221066
193	0x3d66789d	0.05626737
194	0xbcd9c873	-0.02658484
195	0x3c237e72	0.009978877
196	0x3d4806e3	0.048834693
197	0xbac29b35	-0.0014847281
198	0xbd3a735d	-0.045520175
199	0x3d2cf3c5	0.042224664
200	0xbd3d6806	-0.046241783
201	0xbd9af82f	-0.075668685
202	0x3c758178	0.014984481
203	0xbce6696f	-0.028126447
204	0xbd824712	-0.06361212
205	0x3d23f368	0.040027052
206	0xbd07691f	-0.033059236
207	0xbd474b84	-0.048656
208	0xbd01e50f	-0.031712588
209	0x3d18f977	0.037347283
210	0x3d64889b	0.05579434
211	0x3c73821a	0.014862562
212	0x3c854983	0.016270405
213	0xbd0fe591	-0.03513104
214	0x3cffc212	0.03122047
215	0x3d611409	0.054950748
216	0x3d0e8e29	0.034803543
217	0x3b9ca4be	0.004780381
218	0xbd21d0cb	-0.03950576
219	0x3cfb9a41	0.030713202
220	0xbd92ac94	-0.07161823
221	0xbc5fe87e	-0.01366627
222	0x3c3d13f9	0.011540406
223	0x3d6bd55e	0.05757653
224	0xbc9e6024	-0.019332953
225	0xbce86227	-0.028367115
226	0xbd876cda	-0.06612559
227	0x3d957abe	0.07298802
228	0xbcddc59e	-0.02707177
229	0x3d3d97da	0.046287395
230	0x3ccf9d8f	0.025343684
231	0xbb7f0f59	-0.003891906
232	0x3d217cb8	0.03942558
233	0x3d02ed1d	0.03196441
234	0x3ccb2fce	0.024803068
235	0x3d67c093	0.056580137
236	0xbd1abdf8	-0.037778825
237	0xbc678b53	-0.014132339
238	0xbc2f0722	-0.010682853
239	0xbd00b4cf	-0.031422433
240	0xbcfbece3	-0.030752605
241	0x3d7904ae	0.06079548
242	0xbbdec6f9	-0.0067986217
243	0x3d2d07b9	0.042243693
244	0x3cec2462	0.028825942
245	0x3cad3fad	0.021148527
246	0xbd82a08c	-0.06378278
247	0x3a9ac9b1	0.0011809376
248	0xbd9e0e45	-0.077175654
249	0xbdae2cfb	-0.08504673
250	0x3cd760b1	0.026291223
251	0xbdaf6be9	-0.08565504
252	0xbc062123	-0.008186611
253	0x3d0cd202	0.034379967
254	0x3d05ff7a	0.032714345
255	0x3c84c436	0.016206842

sequential/conv2d_3/Conv2D f4 [64, 3, 3, 64]
0	0xbcf68ea7	-0.030097319
1	0xbd9c9465	-0.076454915
2	0x3c85cefd	0.016334051
3	0xbd886b7a	-0.066611245
4	0x3c9780c0	0.01849401
5	0xbcfdc691	-0.030978473
6	0xbd3ef0b3	-0.046616267
7	0x3bc1fb2f	0.005919836
8	0xbc66185b	-0.014043893
9	0x3cf40ef0	0.029792279
10	0xbd188b41	-0.037242178
11	0x3c33e517	0.010979912
12	0x3d15478c	0.036445186
13	0x3d46291c	0.04837905
14	0xbd0debec	-0.03464882
15	0xbd376e5f	-0.044782992
16	0x3cb79921	0.022411885
17	0xbaeba833	-0.0017979204
18	0x3d1add31	0.0378086
19	0xbd840fd7	-0.06448334
20	0xbd6ad2a3	-0.057329785
21	0x3d6f91da	0.058488704
22	0xbdb1083f	-0.08644151
23	0xbcc063b5	-0.023485044
24	0x3cfec964	0.03110189
25	0xbc37571e	-0.011190204
26	0xbcb2dce8	-0.021833852
27	0xbc2e133e	-0.010624705
28	0xbd9bc9f2	-0.076068774
29	0x3d50fb38	0.05102083
30	0xbc8addc1	-0.016951444
31	0x39cf9dcf	0.00039599693
32	0xbd05826a	-0.032595076
33	0x3d1a80ad	0.03772037
34	0xbc9f21f7	-0.019425375
35	0xbd06cdea	-0.03291122
36	0xbd8a7a99	-0.06761665
37	0x3d2c4b40	0.04206395
38	0xbd86e1ca	-0.065860346
39	0xbc608104	-0.013702635
40	0xbd6ee5ee	-0.058324747
41	0x3d80d155	0.06289927
42	0x3b5da022	0.003381737
43	0xbd1e655e	-0.03867089
44	0xbcb388b6	-0.021915775
45	0xbd9888c1	-0.07447959
46	0x3d0fca4d	0.03510504
47	0xbd0bfa2f	-0.03417414
48	0xbb9e4f68	-0.0048312433
49	0xbd9eaa48	-0.07747322
50	0xbc5ac2bd	-0.013352093
51	0xbc9746e0	-0.018466413
52	0xbcdd519d	-0.027016455
53	0xbd429ef7	-0.047514882
54	0x3d262e27	0.040571358
55	0x3bf60ffc	0.0075092297
56	0x3c0d9723	0.008641991
57	0xbd9bfd74	-0.07616702
58	0x3d382291	0.04495484
59	0xbcd77562	-0.02630109
60	0xbd888375	-0.066656984
61	0xbdcc2e86	-0.09969811
62	0x3d898754	0.06715265
63	0xbd41106b	-0.047134798
64	0x3d056f4b	0.03257684
65	0xbdb53bce	-0.088492975
66	0x3b82e5ba	0.0039946707
67	0xbd6e682a	-0.058204807
68	0xbb883029	-0.0041561318
69	0xbd51d7a1	-0.05123103
70	0x3d23cd35	0.039990623
71	0xbdb9725c	-0.090550154
72	0xbd1624b5	-0.0366561
73	0x3d60d6c2	0.05489231
74	0xbd25ef1f	-0.040511247
75	0xbce19033	-0.02753458
76	0x3d26af65	0.040694613
77	0xbd0a8ad7	-0.033823814
78	0xbcca837e	-0.024720903
79	0xbd95eff1	-0.07321156
80	0xbcb9a98c	-0.022663854
81	0x3c80aca7	0.015707327
82	0xbd04f37b	-0.032458764
83	0xbc927ee9	-0.017882781
84	0xbd7a6c9e	-0.06113874
85	0x3d6fdfa6	0.058562897
86	0xbd2639d6	-0.0405825
87	0xbcfaa4c2	-0.03059614
88	0x3d1be571	0.03806061
89	0xbd9c32a3	-0.07626846
90	0xbd7b400b	-0.061340373
91	0xbd93863a	-0.07203336
92	0x3c91d7ba	0.017803062
93	0xbbc23a5b	-0.0059273667
94	0xbd9a18ce	-0.07524262
95	0x3d360c3e	0.04444527
96	0x3d13deb5	0.03610106
97	0x3cfd5e3e	0.030928727
98	0x3b8c980b	0.004290586
99	0xbc64c55d	-0.013963071
100	0xbcecdc5e	-0.028913673
101	0x3c85bc82	0.01632524
102	0x3c61baa5	0.01377741
103	0x3d57c17a	0.052674748
104	0xbbda7a54	-0.0066674147
105	0x3cf96a61	0.030446233
106	0x3d29583c	0.041343912
107	0xbb1d6c92	-0.0024021012
108	0x3d50635a	0.050876
109	0x3d744d59	0.059644077
110	0x3d1897b8	0.037254065
111	0xbca4d984	-0.02012325
112	0x3d231920	0.039818883
113	0x3ca50a00	0.02014637
114	0xbd963fd3	-0.07336392
115	0x3d4326cb	0.047644418
116	0xbbe4fe38	-0.006988313
117	0xbd9c3c84	-0.0762873
118	0xbb8923be	-0.004185169
119	0xbdb51a48	-0.088429034
120	0x3d637ed9	0.055540893
121	0xbd97cfec	-0.07412705
122	0xbcb21b54	-0.021741547
123	0xbd43786b	-0.04772226
124	0x3b32c525	0.0027278152
125	0x3d1c5a6b	0.038172167
126	0x3d5092c2	0.05092121
127	0xbc8c4881	-0.017124416
128	0x3d647962	0.055779822
129	0xbcbe1a46	-0.023205888
130	0xbd53a4ab	-0.05167071
131	0x3d586cfd	0.052838314
132	0x3c86d7ab	0.01646026
133	0xbd2ad6a7	-0.041708615
134	0x3cadfd2f	0.021238891
135	0x3d2d4bc6	0.04230859
136	0xbd7b69e2	-0.061380275
137	0x3cc41668	0.023936465
138	0xbd3a5818	-0.04549417
139	0x3d3fe245	0.046846647
140	0x3b9bb1eb	0.004751434
141	0x3d22caa5	0.039744038
142	0xbb249c84	-0.0025117705
143	0xbdb00dd3	-0.08596387
144	0xbd968de3	-0.073512815
145	0xbda5079d	-0.08058093
146	0x3d39cdf9	0.045362446
147	0xbdb49f70	-0.08819473
148	0x3c82e15b	0.015976598
149	0x3d2e866e	0.04260867
150	0x3d02fbfc	0.031978592
151	0xbcb49882	-0.022045378
152	0x3d2625eb	0.040563505
153	0xbc8d0a69	-0.017216878
154	0x3d84009d	0.064454295
155	0xbd3bfc25	-0.04589476
156	0xbd476d2c	-0.0486881
157	0xbdaa31d3	-0.083102845
158	0x3cc0ead3	0.023549473
159	0x3bad4547	0.0052877995
160	0x3b9aee9b	0.004728151
161	0xbd3cfd15	-0.046139795
162	0xbcaa75d6	-0.020808142
163	0x3d29bfcc	0.041442677
164	0x3c3c1472	0.011479484
165	0xbb4bfb77	-0.0031125227
166	0xbd269a75	-0.040674645
167	0xbd706b8f	-0.058696326
168	0x3ce45ee9	0.027877288
169	0xbcd9ed1a	-0.026602317
170	0xbd268e61	-0.040663127
171	0xbc979163	-0.018501943
172	0x3a58f2d0	0.0008275928
173	0xbb9ca7b8	-0.004780736
174	0xbceaa66d	-0.028643811
175	0x3d2e00e7	0.04248133
176	0x3d802dab	0.062587105
177	0xbc88c664	-0.016696163
178	0xbcdaa693	-0.026690757
179	0xbcc29399	-0.02375202
180	0xbd3477d7	-0.0440596
181	0xbd9a0c76	-0.07521908
182	0xbd13092f	-0.03589743
183	0x3c7e041d	0.01550391
184	0x3d1bf711	0.038077418
185	0xbdab1b47	-0.08354812
186	0x3c403887	0.011732227
187	0xbca86a60	-0.020558536
188	0x3c34e283	0.011040333
189	0xbd264c9d	-0.040600408
190	0xbd764d5a	-0.060132362
191	0xbda7a85f	-0.08186411
192	0xbd8afd5b	-0.06786605
193	0x3ce28ab8	0.027654037
194	0xbd821117	-0.06350916
195	0x3ce0f89b	0.027462294
196	0xbd926b03	-0.07149317
197	0x3d0023af	0.03128403
198	0x3c65d949	0.014028856
199	0xbd835475	-0.06412593
200	0x3d1574c7	0.03648832
201	0xbd4203ae	-0.04736679
202	0xbdd4a830	-0.10383642
203	0x3d2c27f6	0.042030297
204	0x3cb968c4	0.022632964
205	0xbcb4ad68	-0.022055343
206	0x3c1a6cd1	0.009425358
207	0x3ca7148c	0.02039554
208	0x3cbfce59	0.023413824
209	0xbcbbf8b2	-0.022945736
210	0xbd901449	-0.07035119
211	0xbdd71755	-0.10502497
212	0xbc696a21	-0.0142464945
213	0x3c9ec141	0.01937926
214	0xbdf388db	-0.118913375
215	0x3d35cc99	0.044384573
216	0x3c8b28ea	0.016987283
217	0x3d744513	0.059636187
218	0xbcc5059b	-0.024050524
219	0xbd508153	-0.050904583
220	0xb8ee5bf0	-0.00011365849
221	0xbd0cf5ca	-0.03441409
222	0x3d65b36d	0.056079317
223	0xbd7c8a30	-0.061655223
224	0xbccdc469	-0.02511807
225	0xbda316c8	-0.079633296
226	0xbd40184d	-0.046898175
227	0x3d69df40	0.057097673
228	0x3d70dd7b	0.05880497
229	0xbd6b3860	-0.05742681
230	0x3c923c59	0.017851042
231	0x3c8a9637	0.016917331
232	0xbd59f6f5	-0.053214032
233	0x3c8275ba	0.015925277
234	0x3d23eb2e	0.040019207
235	0x3d7d0d1e	0.061780088
236	0xbd53b8a8	-0.051689774
237	0x3bd18bcf	0.0063948403
238	0xbc4aa49b	-0.012368347
239	0xbcdedac7	-0.02720393
240	0xbaf30c93	-0.0018543176
241	0x3c5d392d	0.013502401
242	0xbdb54de3	-0.08852746
243	0xbbbbd1b5	-0.005731786
244	0x3c28551a	0.010274196
245	0x3d296871	0.04135937
246	0x3c9738d6	0.018459719
247	0xbd174c2f	-0.03693789
248	0x3d4e8378	0.050418347
249	0x3d6bf7bb	0.0576093
250	0x3d5fbc45	0.054622907
251	0xba21051a	-0.0006142423
252	0x3cc54e45	0.024085173
253	0xbd5c63c7	-0.053806093
254	0x3c3c9131	0.011509226
255	0xbcc3559e	-0.023844536

sequential/conv2d_4/Conv2D f4 [64, 3, 3, 64]
0	0x3d484457	0.0488933
1	0xbd84ad15	-0.06478325
2	0xbd57d078	-0.052689046
3	0x3c84c389	0.01620652
4	0xbe00525d	-0.12531419
5	0xbdedff17	-0.1162092
6	0xbdbdc274	-0.092656046
7	0xbc588e9f	-0.013217597
8	0xbd48e471	-0.049045984
9	0xbdef1a01	-0.11674882
10	0xbba308e1	-0.0049754237
11	0x3d4f28c5	0.05057599
12	0xbd5b9449	-0.053608213
13	0xbdacb911	-0.08433736
14	0x3d82d74e	0.06388722
15	0xbcc80453	-0.024416124
16	0xbcb6ca51	-0.022313269
17	0x3d167bcb	0.036739152
18	0xbd3b52de	-0.045733325
19	0xbdf882f9	-0.12134356
20	0xbd64f6e1	-0.055899505
21	0x3cba0ace	0.02271023
22	0x3b9a169b	0.004702402
23	0xbda514ef	-0.080606334
24	0xbdf5d2ac	-0.12003073
25	0xb91f36d3	-0.00015183845
26	0xbdb2fff8	-0.087402284
27	0x3bf293a6	0.007402855
28	0xbc8e6248	-0.017380849
29	0xbd995a89	-0.07487971
30	0x3c71d86f	0.014761074
31	0xbd92242c	-0.071358055
32	0xbd008503	-0.03137685
33	0xbd728006	-0.059204124
34	0xbd4d8aa0	-0.05018103
35	0xbdbdfc1f	-0.09276604
36	0xbe00336f	-0.1251962
37	0xbd6dda7c	-0.05806969
38	0xbd08f986	-0.03344109
39	0xbd03f958	-0.032220215
40	0x3bb31a6b	0.0054657958
41	0x3d80239c	0.06256792
42	0xbdf7609f	-0.12078976
43	0x3cb4564b	0.022013804
44	0xbd8f4022	-0.06994654
45	0xbd9629d1	-0.073321946
46	0xbda53715	-0.08067147
47	0xbd8d42ab	-0.068974815
48	0x3c83f91b	0.016109994
49	0xbd513b03	-0.05108167
50	0xbd9dabbb	-0.076987706
51	0xbd24460c	-0.040105864
52	0xbcec21a4	-0.028824635
53	0xbd381b2b	-0.044947784
54	0x3c9c0cce	0.019049075
55	0xbe18c277	-0.14917932
56	0xbd1adff0	-0.03781122
57	0x3d8a3f8f	0.06750404
58	0x3d0dc4c3	0.034611475
59	0xbd61f169	-0.055161867
60	0xbcd94fb2	-0.02652726
61	0x3d3a7407	0.04552081
62	0x3d8194fa	0.06327243
63	0xbca1d82c	-0.0197564
64	0xbd1a5a4a	-0.037683763
65	0x3d2d74fc	0.042347893
66	0xbd17738f	-0.03697544
67	0xbd98cbc6	-0.07460742
68	0xbdaeb66d	-0.08530889
69	0xbe0863c8	-0.13319314
70	0xbdd641a2	-0.10461737
71	0xbdf87c70	-0.121331096
72	0xbd9e5f26	-0.07732992
73	0xbdb1ef8a	-0.086882666
74	0x3d8c6d09	0.06856734
75	0xbccfaaf0	-0.025350064
76	0x3c29fbed	0.010375005
77	0x3c987ea5	0.018615076
78	0xbd924567	-0.07142144
79	0xbd66d343	-0.05635382
80	0xbde266e9	-0.11054785
81	0x3b55f09d	0.0032644637
82	0xbd145093	-0.036209654
83	0xbcf644fe	-0.030062195
84	0x3ccbd6dd	0.024882728
85	0xbd97450b	-0.07386216
86	0xbd90438b	-0.07044133
87	0xbd5d8f2d	-0.05409162
88	0xbd4a283d	-0.04935478
89	0xbd81bb6c	-0.06334576
90	0xbbe052fb	-0.0068458295
91	0xbdc359a2	-0.095385805
92	0xbcf3a85c	-0.029743366
93	0x3caab1e1	0.020836772
94	0xbd871864	-0.06596449
95	0x3cfadf75	0.03062413
96	0xbd88add8	-0.06673783
97	0x3d8ed270	0.069737315
98	0x3d79d288	0.060991794
99	0xbdee9d01	-0.1165104
100	0xbdbea679	-0.09309096
101	0xbdc0b13f	-0.09408807
102	0xbd87bd04	-0.06627849
103	0xbc0adf16	-0.008476039
104	0xbc98aa9e	-0.018636044
105	0x3b5ad3c0	0.0033390373
106	0xbd6acc82	-0.05732394
107	0xbd3284ca	-0.04358367
108	0xbd8ab290	-0.06772339
109	0x3d116b27	0.03550258
110	0xbd2d149b	-0.04225598
111	0x3d004857	0.03131899
112	0x3b9f7edf	0.004867419
113	0xbd802d13	-0.06258597
114	0xbd572ce3	-0.05253304
115	0xbd605df7	-0.05477711
116	0xbd9fcddd	-0.07802937
117	0xbd1ae3a2	-0.037814744
118	0xba328cf0	-0.00068111625
119	0xbdf1a7da	-0.11799593
120	0xbd575d44	-0.05257918
121	0x3cccb1a7	0.024987055
122	0x3d0db08d	0.0345922
123	0xbd4606b5	-0.04834624
124	0xbd071f80	-0.032989025
125	0x3d82c59d	0.06385348
126	0x3aea92d7	0.0017896545
127	0x3d420f69	0.047377978
128	0x3ca5d3f8	0.020242676
129	0xbceb8052	-0.028747711
130	0xbd216853	-0.039406132
131	0x3d169436	0.03676244
132	0xbde971dc	-0.1139867
133	0xbdd2100b	-0.10256966
134	0xbcf04267	-0.029328538
135	0xbdda59a9	-0.106616326
136	0xbd0f9bf5	-0.03506084
137	0xbd0e098f	-0.034677085
138	0xbc98a27b	-0.018632164
139	0x3d0815f9	0.03322408
140	0xbe07bc42	-0.13255408
141	0xbd09c184	-0.033631817
142	0xbd73cd60	-0.059522033
143	0xbd85de5a	-0.06536551
144	0xbdda558d	-0.10660849
145	0x3bc5a907	0.0060321125
146	0xbc33ee42	-0.010982098
147	0xbdb52066	-0.0884407
148	0x3d878519	0.06617183
149	0xbc8f2287	-0.017472519
150	0xbd0c72e0	-0.03428924
151	0x3bff75c2	0.0077960202
152	0x3cad8a71	0.021184178
153	0xbdb00ac1	-0.08595801
154	0x3dc1b45c	0.09458229
155	0xbdaf4b84	-0.08559325
156	0xbdcd9343	-0.100378536
157	0xbd9a415b	-0.07531997
158	0xbc03cee5	-0.008044933
159	0x3d7d5c46	0.061855577
160	0xbd54e983	-0.051980507
161	0x3d0e9af0	0.03481573
162	0xbd9365b5	-0.071971335
163	0x3c7edce4	0.015555594
164	0xbd186716	-0.037207685
165	0xbd078446	-0.03308513
166	0x3d3ccd71	0.04609436
167	0x3d9a66d6	0.07539146
168	0x3d005f4a	0.031340875
169	0xbd32afb5	-0.0436246
170	0xbd34ec35	-0.044170577
171	0xbcb6bab3	-0.022305822
172	0xbd7387c1	-0.059455637
173	0x3bb7cc1a	0.0056090476
174	0xbcf64ca9	-0.030065851
175	0xbd4019a4	-0.046899453
176	0xbdc6b408	-0.09702307
177	0xbd4259bb	-0.047448855
178	0xbd547056	-0.051864944
179	0xbdcac75b	-0.09901305
180	0xbcb59d35	-0.022169689
181	0xbd89ea31	-0.067341216
182	0x3ca65492	0.020303998
183	0xbd9f9a14	-0.0779306
184	0xbdd4a29c	-0.10382578
185	0x3c9bcaef	0.019017665
186	0xbd1a00c4	-0.037598386
187	0xbbfadaa5	-0.007655459
188	0xbce84e23	-0.028357571
189	0x3a6bb025	0.0008990786
190	0x3c254824	0.010088
191	0xbdb6862f	-0.08912312
192	0x3c84fcab	0.016233763
193	0x3c5976f0	0.013272986
194	0x3b63acd0	0.0034740455
195	0xbd890e3a	-0.066921666
196	0x3dc5b5b9	0.096538015
197	0xbd4ca3d1	-0.049960915
198	0x3c11724f	0.008877351
199	0xbdd180e0	-0.10229659
200	0xbda23537	-0.07920306
201	0xbd675fa0	-0.05648768
202	0xbd50c9ef	-0.05097383
203	0xbd03b60a	-0.032156028
204	0xbc3f0c97	-0.0116607165
205	0xbd97bd27	-0.07409125
206	0x3c6ff7e2	0.014646502
207	0x3d06104d	0.03273039
208	0xbdbd4cf6	-0.09243195
209	0xbc97b7ab	-0.018520197
210	0xbcc3a909	-0.023884313
211	0x3bae97f9	0.005328175
212	0xbd08eccd	-0.033428956
213	0x3a7d9e6b	0.000967479
214	0xbd453f47	-0.04815605
215	0xbdc31c08	-0.09526831
216	0xbd401cfc	-0.04690264
217	0xbdac499b	-0.08412477
218	0xbd972fa4	-0.073821336
219	0xbda4545a	-0.08023901
220	0xbda61cb0	-0.081109405
221	0x3d455b06	0.04818251
222	0x3ce34e8e	0.027747419
223	0xbccf426a	-0.025300223
224	0xbd72728c	-0.05919127
225	0x3c8c0958	0.0170943
226	0xbd518a6c	-0.0511574
227	0xbdae2313	-0.085027836
228	0x3cf0533f	0.02933657
229	0xbdddae1c	-0.10824224
230	0xbcba9d51	-0.022780092
231	0xbdcda709	-0.10041625
232	0xbda66140	-0.08124018
233	0x3db540ce	0.08850251
234	0xbe157ce9	-0.1459843
235	0xbdad4ca9	-0.084618874
236	0xbdfe6dbd	-0.12423275
237	0x3d680834	0.056648448
238	0x3c0e4171	0.008682595
239	0xbc4324b3	-0.011910605
240	0xbc760e87	-0.015018112
241	0xbd9bcaa8	-0.07607013
242	0xbe0cd5c2	-0.13753417
243	0xbd0cbdab	-0.03436057
244	0x3c77d2fb	0.015125985
245	0xbd94fdca	-0.07274969
246	0xbcaea1d6	-0.021317404
247	0xbcc3c2df	-0.023896633
248	0xbc90e2d3	-0.017686283
249	0x3d825e0a	0.06365593
250	0xbc1068ea	-0.008814076
251	0x3d3d51fa	0.046220757
252	0xbe190ec0	-0.14947033
253	0x3d1b86cc	0.03797035
254	0x3d3ff392	0.046863146
255	0xbd426475	-0.047459085
